Data/best_lstm_model.pth (torch, 153909 bytes, 5 tensors)

lstm.weight_ih_l0 f4 [256, 81]
0	0x3d6a0c0d	0.0571404
1	0xbca06153	-0.019577658
2	0xbd96a896	-0.07356374
3	0x3dac1501	0.08402444
4	0xbdc210e1	-0.09475876
5	0x3da2e5a4	0.07953957
6	0xbdef0299	-0.11670417
7	0x3de9c979	0.11415381
8	0xbcc7e49c	-0.024401002
9	0xbd7deb6d	-0.061992098
10	0x3d911065	0.07083205
11	0xbd9e0f29	-0.07717735
12	0xbdf511c0	-0.11966276
13	0xbd607f37	-0.05480882
14	0x3d796c32	0.0608942
15	0xbdb54a24	-0.08852032
16	0xbcb6dcc8	-0.022322074
17	0x3c81114c	0.015755318
18	0xbd09f4f8	-0.033680886
19	0x3c1a71f2	0.009426581
20	0xbdba2cdb	-0.09090587
21	0xbd848cc2	-0.0647216
22	0x3c78c007	0.015182502
23	0x3d165c5d	0.03670918
24	0x3d887647	0.066631846
25	0x3c960bdc	0.018316202
26	0x3d49d74d	0.049277592
27	0xbdac7e02	-0.084224716
28	0xbca5f51a	-0.020258475
29	0xbda59b66	-0.080862805
30	0x3d8ccdea	0.068752125
31	0xbdb1f3e6	-0.08689098
32	0x3d3f1f73	0.04666085
33	0x3ddeaec8	0.10873181
34	0xbdb987fb	-0.09059139
35	0xbb9b82c8	-0.004745815
36	0x3df6fcad	0.12059913
37	0xbd8f63d9	-0.07001466
38	0xbdb08453	-0.08618989
39	0x3de5a9be	0.112140164
40	0x3db801c1	0.089847095
41	0x3d952e46	0.072842166
42	0x3dd76a4d	0.10518322
43	0xbce5b41c	-0.028039984
44	0xbbfbca16	-0.0076840026
45	0xbb9f3475	-0.0048585483
46	0x3c484da9	0.012225547
47	0xbdcafd44	-0.09911588
48	0xbdd05ffa	-0.10174556
49	0xbdf4d52e	-0.11954723
50	0xbbd5ccd7	-0.006524663
51	0xbcfc743d	-0.030817145
52	0xbcd335fc	-0.025782578
53	0xbd3b5bf0	-0.045741975
54	0xbce3a473	-0.027788376
55	0x3deef067	0.11666947
56	0xbbceba0e	-0.0063088005
57	0x3ca0609e	0.01957732
58	0x3df26656	0.11835925
59	0xbd42fcf2	-0.04760451
60	0xbda022ec	-0.07819161
61	0xbcf9f2d3	-0.030511295
62	0xbc037513	-0.008023518
63	0x3df7bffa	0.120971635
64	0xbde724f1	-0.11286343
65	0x3b6b455d	0.0035899498
66	0xbb39b7da	-0.0028338344
67	0x3d83aae1	0.06429077
68	0xbd4eba2a	-0.05047051
69	0x3dc544a4	0.09632233
70	0x3ba97deb	0.0051724813
71	0xbddd8364	-0.108160764
72	0x3b5d4466	0.0033762692
73	0xbdae1dac	-0.08501753
74	0x3d19b152	0.03752262
75	0xbb97ec54	-0.004636327
76	0xbdc82903	-0.09773447
77	0x3d1cbeb9	0.038267825
78	0x3d413bec	0.047176287
79	0x3db87112	0.090059415
80	0x3c6608f5	0.014040221
81	0xbde543b2	-0.111945525
82	0x3da64869	0.0811928
83	0x3d87bf09	0.06628234
84	0xbde822d2	-0.113347664
85	0x3c5beaad	0.01342265
86	0xbde6381e	-0.11241172
87	0x3da0b3f2	0.07846822
88	0xbd941486	-0.07230477
89	0x3d441df0	0.047880113
90	0x3da742d9	0.08167047
91	0x3db11efb	0.08648487
92	0x3dffe953	0.12495675
93	0x3c33f00b	0.010982524
94	0xbdf9b49f	-0.12192654
95	0xbd7ae275	-0.061251123
96	0x3bd2943d	0.006426363
97	0xbd4a8f21	-0.049452905
98	0x3dcf7f09	0.10131652
99	0xbd0493f2	-0.032367654
100	0xbd36f14a	-0.044663705
101	0xbdbc66da	-0.09199305
102	0x3dd4d532	0.10392226
103	0xbc1f0f6f	-0.0097082695
104	0x3d8a1e39	0.06744046
105	0xbae487f3	-0.0017435536
106	0x3a901380	0.001099214
107	0xbc00461c	-0.007829215
108	0x3e023725	0.12716348
109	0xbdaad964	-0.08342245
110	0xbc70a02c	-0.014686625
111	0x3cb101b4	0.021607257
112	0x3c18b381	0.009320141
113	0xbbc6c93e	-0.0060664704
114	0xbdedcfd2	-0.11611904
115	0x3dd08b32	0.101827994
116	0xbdae295a	-0.08503981
117	0x3dc397bc	0.095504254
118	0xbd3a3dba	-0.045469023
119	0x3c40e2ce	0.011772824
120	0xbd071775	-0.032981355
121	0x3d8415a3	0.064494394
122	0x3dde109f	0.10843014
123	0x3cfcdcf7	0.030867083
124	0xbb983c53	-0.004645863
125	0xbdf68916	-0.12037866
126	0x3c7bb4fd	0.015362975
127	0x3d8a4cca	0.067529276
128	0xbd82c8f2	-0.063859835
129	0xbdde60fe	-0.108583435
130	0xbba1b5d2	-0.0049350047
131	0xbd9ef133	-0.07760849
132	0xbde8656d	-0.113474704
133	0xbc85ff43	-0.01635707
134	0x3da791d1	0.08182109
135	0x3d7cc3de	0.06171023
136	0x3ba15e07	0.004924539
137	0xbb01fc34	-0.0019834163
138	0xbde1fbaa	-0.11034329
139	0xbdbae8c3	-0.09126427
140	0x3dd23132	0.102632895
141	0x3d447388	0.04796174
142	0x3c0cab93	0.008585828
143	0x3df5d20b	0.12002953
144	0xbda004b0	-0.07813394
145	0xbddf7660	-0.1091125
146	0x3d921482	0.07132818
147	0xbd5354fc	-0.05159472
148	0x3da3b1c0	0.079928875
149	0xbbf2d2ab	-0.0074103675
150	0x3df1ede3	0.118129514
151	0x3d312724	0.043250218
152	0x3cd7c35e	0.026338276
153	0xbcb98020	-0.022644103
154	0xbd5adfde	-0.053436153
155	0xbdf21213	-0.11819854
156	0x3c0dd11d	0.0086558135
157	0x3d9a96c8	0.075482905
158	0xbd9ab943	-0.07554867
159	0x3d006580	0.031346798
160	0x3d0ebc27	0.034847405
161	0xbd26bd79	-0.04070804
162	0x3a3a962c	0.0007117714
163	0xbd95944c	-0.07303676
164	0x3dea2677	0.11433118
165	0x3d74ad69	0.05973569
166	0x3d77b3b7	0.060474124
167	0x3c4ae5b9	0.012383872
168	0xbc4ccd15	-0.012500067
169	0x3c56803c	0.013092097
170	0xbd022e19	-0.031782243
171	0xbd9e46ad	-0.07728324
172	0x3c544fbb	0.012958462
173	0xbcecadd2	-0.028891478
174	0x3dde24bb	0.108468495
175	0x3df91f46	0.12164168
176	0xbda86568	-0.08222467
177	0xbcf64bc7	-0.03006543
178	0xbdccce81	-0.10000325
179	0xbddadabc	-0.106862515
180	0xbd57a382	-0.052646168
181	0xbca6e34c	-0.020372055
182	0xbdfd269c	-0.1236088
183	0xbc2ec3b2	-0.010666775
184	0x3d83b74f	0.06431448
185	0x3ba8dc18	0.0051531903
186	0xbdf71235	-0.120640196
187	0x3de62947	0.11238342
188	0xbd0204c1	-0.031742815
189	0xbd91b1ca	-0.07113989
190	0x3aff64ff	0.0019485055
191	0xbd5d6bce	-0.05405789
192	0xbd8541b9	-0.06506676
193	0x3d1e3397	0.03862342
194	0x3dd51514	0.10404411
195	0xbdb705eb	-0.08936676
196	0x3bca20b1	0.006168448
197	0xbb0fa9c2	-0.0021921252
198	0xbd6f3f22	-0.058409818
199	0xbdab9d29	-0.08379585
200	0xbdefc7f4	-0.1170806
201	0xbda64ebb	-0.081204854
202	0x3d07ee67	0.033186343
203	0x3d391a2d	0.04519098
204	0x3d824cb8	0.06362289
205	0x3d5473df	0.051868316
206	0x3e00b836	0.12570271
207	0xbd9dcfee	-0.07705675
208	0xbde168ce	-0.11006318
209	0xbdc72b2b	-0.097250305
210	0x3db24d0b	0.08706101
211	0x3de76eec	0.113004535
212	0x3d866523	0.06562259
213	0x3d59273d	0.053015936
214	0xbca4ec8c	-0.020132326
215	0xbd93665e	-0.07197259
216	0xbdd610c8	-0.104524195
217	0xbce252b0	-0.02762732
218	0x3df7f070	0.12106407
219	0x3d8362dd	0.06415341
220	0x3ddbd343	0.10733654
221	0x3de35f49	0.111021586
222	0xbd6e5b58	-0.05819258
223	0x3d968c10	0.073509336
224	0xbd756261	-0.059908275
225	0xbd3b670a	-0.045752563
226	0xbda175cb	-0.07883795
227	0x3bea487e	0.007149755
228	0xbcb99ec7	-0.022658719
229	0xbcb09df4	-0.021559693
230	0xbbb47054	-0.0055065546
231	0x3df9efc3	0.12203934
232	0x3e007f02	0.1254845
233	0x3ccf1f3d	0.02528345
234	0x3d52088c	0.051277682
235	0x3d9716b1	0.07377375
236	0x3de300b0	0.110841155
237	0xbd27fa8f	-0.041010436
238	0x3c7c2999	0.015390777
239	0x3d3065c6	0.04306581
240	0x3db1060a	0.0864373
241	0x3dd0c373	0.10193529
242	0x3d9df897	0.077134304
243	0xbd4d3bc0	-0.05010581
244	0xbdbb1702	-0.09135248
245	0xbe014c53	-0.12626772
246	0xbcd8c405	-0.026460657
247	0x3a494956	0.00076784694
248	0xbd477278	-0.04869315
249	0xbd1f3412	-0.038868017
250	0xbdb1ab98	-0.08675307
251	0x3d863528	0.065531075
252	0x3da53b7d	0.08067987
253	0x3c7106eb	0.014711122
254	0x3c85fda9	0.016356306
255	0xbc998928	-0.018742159

lstm.weight_hh_l0 f4 [256, 64]
0	0x3dde6f6c	0.10861096
1	0xbded1498	-0.115761936
2	0x3d12cc1d	0.03583919
3	0xbd3a6a37	-0.04551145
4	0xbdd44b69	-0.10365946
5	0xbc904c1d	-0.017614419
6	0xbda6a7cf	-0.08137476
7	0xbd83c03d	-0.06433151
8	0x3ddfa9ab	0.109210335
9	0x3d113408	0.03545001
10	0x3da38921	0.0798514
11	0x3cda0cd3	0.026617443
12	0x3db6981f	0.089157335
13	0x3d253dc2	0.0403421
14	0xbdabe834	-0.083938986
15	0x3dd7e142	0.105410114
16	0x3cfd9af6	0.03095768
17	0xbd55c861	-0.05219305
18	0xbd89a00e	-0.06719981
19	0xbca1c535	-0.019747356
20	0x3c01db1a	0.007925773
21	0x3d86499b	0.06557008
22	0x3d0627b6	0.032752715
23	0xbd3030c7	-0.043015268
24	0xbd344627	-0.044012215
25	0x3dbd3b8f	0.092398755
26	0xbd2dfb0e	-0.042475753
27	0xbdecb06c	-0.11557087
28	0xbd365c60	-0.04452169
29	0xbd35134e	-0.044207864
30	0x3d745979	0.05965564
31	0xbc9a9170	-0.018868178
32	0xbdf5af95	-0.1199638
33	0x3c879317	0.01654963
34	0x3da1c8f8	0.0789966
35	0x3dd054c8	0.10172421
36	0xbd8120a5	-0.063050546
37	0x3ceeec31	0.02916536
38	0x3d8bd7c4	0.068282634
39	0xbc1fb6f0	-0.009748206
40	0xbd6a5b31	-0.057215873
41	0xbc8d76e3	-0.017268604
42	0xbcd2ff7c	-0.02575659
43	0xbdc7f7e9	-0.09764082
44	0xbdcb9f45	-0.099424876
45	0x3d3535e4	0.044240847
46	0xbd873518	-0.06601924
47	0x3dab4446	0.083626315
48	0xbdefdf99	-0.1171257
49	0xbd910d25	-0.07082585
50	0x3cb45a51	0.022015722
51	0x3cbab18d	0.022789741
52	0x3c1e949a	0.009678984
53	0x3b415abe	0.002950355
54	0xbd130a2b	-0.03589837
55	0x3ddcca24	0.10780743
56	0xbd89f820	-0.06736779
57	0x3decdf68	0.11566049
58	0x3cee5829	0.029094772
59	0xbdbd83f9	-0.092536874
60	0x3c85dc49	0.016340392
61	0x3d8bdbd7	0.068290405
62	0xbd2e240e	-0.042514853
63	0xbdeb364d	-0.114849664
64	0xbd7a0182	-0.061036594
65	0x3db290c7	0.0871902
66	0xbc7100bc	-0.014709648
67	0x3d2b1edb	0.041777473
68	0xbdec48e2	-0.11537339
69	0x3d5b2ad2	0.053507634
70	0xbdae1eb8	-0.08501953
71	0x3d616f90	0.055038035
72	0xbdae7318	-0.08518046
73	0xbd2f52a0	-0.042803407
74	0xbd4fdfc6	-0.050750516
75	0x3db98cc0	0.09060049
76	0x3dac3e94	0.08410373
77	0xbcd43968	-0.02590628
78	0xbd96fd2e	-0.07372509
79	0xbdd2e07f	-0.102967255
80	0x3dabc5ac	0.08387312
81	0x3d9447b9	0.072402425
82	0xbdd36cb3	-0.10323467
83	0xbde621c2	-0.112369075
84	0x3d01164c	0.031515405
85	0xbd8c13d9	-0.06839723
86	0x3d8884c4	0.06665948
87	0xbcb0b9e8	-0.021573022
88	0xbdeeca14	-0.11659637
89	0xbdce3246	-0.10068183
90	0xbdc0279d	-0.09382556
91	0x3dd2d530	0.102945685
92	0x3d906336	0.07050173
93	0xbe001a94	-0.12510139
94	0x3cfbece1	0.030752601
95	0xbd241bc4	-0.040065542
96	0xbd9a4f7e	-0.07534693
97	0xbdaaee3d	-0.083462216
98	0x3d3a1d95	0.045438368
99	0x3d1485d2	0.036260433
100	0xbb080d32	-0.0020759818
101	0x3d8d15a5	0.06888894
102	0x3da7b042	0.081879154
103	0x3d899e71	0.067196734
104	0xbb9c6fee	-0.0047740852
105	0xbd1828b3	-0.03714819
106	0xbdbb505a	-0.09146185
107	0xbda36f9a	-0.07980271
108	0x3c98427d	0.018586392
109	0x3dc4e6b0	0.09614313
110	0xbd17e46e	-0.037083082
111	0xbdf1f785	-0.11814789
112	0xbd799d2f	-0.060940918
113	0x3c960bda	0.018316198
114	0x3d9d5483	0.07682135
115	0xbcbc4bb4	-0.022985317
116	0xbd80d852	-0.0629126
117	0x3de8a0b7	0.11358779
118	0x3d84a6c2	0.06477119
119	0xbd1ebe1d	-0.038755525
120	0xbccf032b	-0.025270065
121	0xbd862610	-0.065502286
122	0xbc5ed725	-0.013601099
123	0xbd8ab798	-0.06773299
124	0x3d62daab	0.05538432
125	0x3ddf8a6a	0.10915072
126	0xbd442edd	-0.047896255
127	0xbd8d9f19	-0.06915111
128	0xbce5298a	-0.027973909
129	0xbdb0052c	-0.085947365
130	0xbd95497a	-0.07289405
131	0x3c9a0fdd	0.018806392
132	0x3d05d0bb	0.032669764
133	0x3d3f031f	0.046633836
134	0xbde0f56f	-0.10984313
135	0x3d697c1f	0.057003137
136	0x3dd46bb2	0.10372104
137	0xbbcce73c	-0.006253151
138	0xbd7871ba	-0.060655333
139	0x3cbf7bf9	0.023374544
140	0xbb5bc99d	-0.003353692
141	0x3ae2a764	0.0017292318
142	0x3d98c4ae	0.07459389
143	0x3dfdf133	0.12399521
144	0x3c63f225	0.013912712
145	0xbd812529	-0.06305916
146	0x3dd065a0	0.101756334
147	0xbd88f444	-0.06687215
148	0xbd60b4b5	-0.054859836
149	0xbc8f42da	-0.017487932
150	0xbdfee47d	-0.124459244
151	0xbdd1837c	-0.10230157
152	0x3d1a3e30	0.037656963
153	0x3da871e5	0.08224849
154	0x3db45c34	0.08806649
155	0xbca9552a	-0.020670492
156	0x3db8327a	0.08994003
157	0x3de9cad8	0.114156425
158	0x3db58a55	0.08864275
159	0xbd989569	-0.07450373
160	0xbd87f06f	-0.06637656
161	0x3d88cf9f	0.066802256
162	0xbaa76ee8	-0.0012774142
163	0xbd539e07	-0.05166438
164	0x3da6d1fb	0.08145519
165	0x3dc6e688	0.09711939
166	0xbd7e7e3b	-0.0621321
167	0x3bf4f15b	0.007475061
168	0xbd0aebfd	-0.033916462
169	0xbc9eaf39	-0.019370662
170	0xbd9ded7f	-0.077113144
171	0x3ca07879	0.019588696
172	0xbdd9d696	-0.10636632
173	0x3d3d57ba	0.04622624
174	0x3dc004e6	0.09375934
175	0xbd8328a8	-0.06404239
176	0x3ca00144	0.019531853
177	0xbca782a8	-0.020448044
178	0xbd94274c	-0.07234058
179	0x3cf8401d	0.03030401
180	0xbcc91eb0	-0.024550766
181	0x3de31e60	0.11089778
182	0x3b8f4aae	0.004372916
183	0xbcfccc30	-0.030859083
184	0x3cd55ae6	0.02604432
185	0x3c25363d	0.010083732
186	0xbd822b10	-0.0635587
187	0xbd5289d8	-0.05140099
188	0x3da12b4a	0.07869585
189	0x3df5921e	0.1199076
190	0xbd7e39d8	-0.062066883
191	0xbcdb0834	-0.02673731
192	0x3d4250d4	0.047440365
193	0xbdccc7e2	-0.09999062
194	0x3df48c0a	0.11940773
195	0xbd655082	-0.05598498
196	0x3d83d6b0	0.06437433
197	0x3dabc093	0.0838634
198	0x3dbd7b6d	0.09252057
199	0xbd1a4c15	-0.037670214
200	0x3d2816e9	0.041037474
201	0x3de699f9	0.11259837
202	0x3d806c80	0.06270695
203	0xbdaaaab6	-0.08333342
204	0x3df75b67	0.120779805
205	0xbdf62543	-0.12018826
206	0xbdea1746	-0.1143022
207	0x3df1e7cc	0.1181179
208	0x3d83679d	0.06416247
209	0x3d275015	0.040847857
210	0x3c79d822	0.015249284
211	0x3d93bd0a	0.07213791
212	0xbc2185fa	-0.009858603
213	0xbde9799e	-0.1140015
214	0x3d21c201	0.039491657
215	0x3db77618	0.089580715
216	0xbdeb67c1	-0.11494399
217	0xbd351315	-0.04420765
218	0x3c20a3b5	0.009804656
219	0x3dc7fc75	0.09764949
220	0x3defe288	0.11713129
221	0xbddc8e65	-0.10769347
222	0x3d5c4d7e	0.05378484
223	0x3cb0f34b	0.021600386
224	0xbde7ebb1	-0.113242514
225	0x3d77a70e	0.06046205
226	0xbd5ad022	-0.053421147
227	0x3d3e7331	0.046496574
228	0x3df4d8c8	0.1195541
229	0xbd21487c	-0.039375767
230	0xbdaf81c2	-0.08569671
231	0x3d09ed52	0.033673592
232	0x3d9ad3fc	0.07559964
233	0x3c9ea920	0.019367754
234	0x3d20b12e	0.03923147
235	0x3db8e33a	0.09027715
236	0xbdd5a929	-0.10432655
237	0xbdcef60c	-0.101055235
238	0xbd950f24	-0.072782785
239	0x3d3ef30c	0.046618506
240	0xbd901670	-0.070355296
241	0xbd6b605b	-0.05746494
242	0xbc94068e	-0.018069532
243	0x3d62cdb9	0.055371974
244	0x3df2da90	0.11858094
245	0xbd8fea0d	-0.070270635
246	0x3cecffa0	0.028930485
247	0x3df7d06a	0.12100299
248	0xbcf8e04a	-0.030380387
249	0x3c1bd447	0.00951106
250	0xbd8f44ff	-0.06995582
251	0xbd2a2190	-0.041535914
252	0x3d5ea2b3	0.05435438
253	0x3d9b3705	0.075788535
254	0x3d7b5158	0.061356872
255	0x3dd05521	0.10172487

lstm.bias_ih_l0 f4 [256]
0	0x3d86c206	0.06579976
1	0xbcb5cf78	-0.022193655
2	0x3d5a1e60	0.053251624
3	0x3d07b779	0.033133958
4	0x3cd67705	0.0261798
5	0x3d9466c0	0.072461605
6	0xbdae6731	-0.08515776
7	0x3d5272d4	0.05137904
8	0x3ba3034b	0.004974758
9	0x3cc2d523	0.023783272
10	0xbd06f6aa	-0.03295008
11	0xbd0735c5	-0.033010263
12	0xbe0040a4	-0.12524658
13	0xbdaa89c9	-0.08327062
14	0x3dc3c533	0.09559097
15	0xbd403959	-0.04692969
16	0x3dadaaa5	0.084798135
17	0x3de1ebf4	0.110313326
18	0xbca00e1b	-0.019537976
19	0x3b679bd1	0.0035340677
20	0x3dafc66b	0.08582767
21	0xbd7d781c	-0.061882123
22	0x3d1df208	0.038560897
23	0x3d5cf6cb	0.053946298
24	0xbc81e9b9	-0.015858518
25	0x3d8f2894	0.069901615
26	0xbcd1d557	-0.025614424
27	0x3c954106	0.018219482
28	0x3d310819	0.043220613
29	0xbde3a8de	-0.11116193
30	0x3c3b18e9	0.011419513
31	0xbd9e92bf	-0.07742833
32	0x3db3a905	0.08772472
33	0xbc99e05b	-0.018783739
34	0x3de3a66c	0.11115727
35	0x3d1762f4	0.036959603
36	0x3b8a994a	0.0042296993
37	0xbd8469a6	-0.06465463
38	0x3d3ee343	0.046603452
39	0xbd5672ba	-0.052355506
40	0x3d2c564d	0.04207449
41	0xbd13e977	-0.03611132
42	0x3dc07bd9	0.09398622
43	0xbdcf4434	-0.101204306
44	0xbdd1b389	-0.10239322
45	0xbca24992	-0.019810472
46	0x3d86abab	0.06575712
47	0xbd8589cf	-0.065204255
48	0x3dc58957	0.09645336
49	0x3d28bab6	0.041193686
50	0x3d203c69	0.03912011
51	0x3bdabb2a	0.0066751437
52	0x3df76a23	0.12080791
53	0xbdeefab3	-0.11668911
54	0xbd4858dd	-0.04891287
55	0xbda708f5	-0.08156005
56	0x3cd4ade0	0.025961816
57	0xbc5c9519	-0.013463282
58	0x3d882b54	0.06648889
59	0xbdd1dad3	-0.102468155
60	0xbd5ad337	-0.053424086
61	0xbd36e49f	-0.044651624
62	0xbdbe59b2	-0.09294452
63	0x3d8142d5	0.06311575
64	0xbd3c1a14	-0.045923308
65	0x3d33243e	0.043735735
66	0xbc7d6f1a	-0.015468383
67	0x3d804c08	0.06264502
68	0x3cc5ccc8	0.024145499
69	0x3d52b51a	0.051442243
70	0xbde1da8a	-0.11028011
71	0x3d30a45e	0.043125503
72	0xbc3a8341	-0.011383832
73	0xbde2d3c5	-0.11075548
74	0x3dc58bdb	0.09645816
75	0x3ccb75d2	0.024836455
76	0xbd09e372	-0.033664174
77	0x3cd6c882	0.026218656
78	0xbd94ff74	-0.07275286
79	0x3b334fd0	0.0027360804
80	0x3d886370	0.06659591
81	0x3d78d262	0.06074751
82	0xbdc5373d	-0.096296765
83	0xbdc826da	-0.09773035
84	0x3d8d4353	0.06897607
85	0x3da1faf7	0.07909196
86	0x3ced56f0	0.02897212
87	0xbd680d28	-0.05665317
88	0x3d9e5e78	0.07732862
89	0xbd91f4bc	-0.071267575
90	0xbcc92479	-0.024553524
91	0x3de56f70	0.11202896
92	0x3d94b49c	0.07261011
93	0xbd8cc52e	-0.068735465
94	0x3dcc8b1b	0.0998747
95	0x3aec1401	0.0018011333
96	0xbd7ad1a0	-0.06123507
97	0x3c9a18db	0.01881068
98	0xbdc25dd8	-0.094905555
99	0x3dcd7598	0.10032195
100	0xbd3400fb	-0.043946248
101	0xbcf754a4	-0.030191727
102	0x3df3489d	0.11879084
103	0xbda5c246	-0.08093695
104	0x3cdbb8d0	0.026821524
105	0xbca8df19	-0.020614194
106	0x3d66338b	0.0562015
107	0xbda02b8f	-0.07820808
108	0xbd905570	-0.07047546
109	0x3dc6bb17	0.09703653
110	0xbd869a24	-0.06572369
111	0x3dbd439c	0.09241411
112	0x3dfa7191	0.12228692
113	0xbc60f627	-0.013730562
114	0xbd94bc38	-0.072624624
115	0x3d5205ec	0.05127518
116	0xbdd305c1	-0.10303832
117	0x3d9c64d9	0.07636423
118	0x3dcbed6d	0.09957395
119	0x3b86d6aa	0.0041149454
120	0xbd660ef6	-0.05616661
121	0xbadf5d10	-0.0017041285
122	0xbbf68e07	-0.007524255
123	0xbdf2b34d	-0.11850605
124	0x3dfd35ee	0.12363802
125	0x3da9a3d8	0.08283204
126	0x3d636099	0.055512045
127	0xbdaf7dc7	-0.08568912
128	0xbda6cc98	-0.08144492
129	0x3dea3bd2	0.11437191
130	0x3d8e3c6b	0.069451176
131	0x3d74d71f	0.059775468
132	0xba71e3a0	-0.0009227339
133	0xbd81443e	-0.06311844
134	0xbd12e1ee	-0.035859995
135	0xbc9005d6	-0.017580908
136	0x3c913e8f	0.017730026
137	0xbd756b84	-0.059916988
138	0x3d164529	0.03668705
139	0xbca81adc	-0.02052062
140	0x3dec482c	0.11537203
141	0x3d7e0a00	0.062021255
142	0xbd937d92	-0.07201685
143	0x3dc53d81	0.096308716
144	0x3d839fdd	0.06426976
145	0xbdbad3a6	-0.091224
146	0x3dbbe5ae	0.09174667
147	0xbd98bf82	-0.07458402
148	0x3d8e8d2a	0.06960519
149	0x3dd054b2	0.10172404
150	0xbdc19c5a	-0.0945365
151	0x3dab519e	0.083651766
152	0xbc244961	-0.0100272605
153	0xbd64a888	-0.055824786
154	0x3c2cc210	0.010544315
155	0x3c93ea25	0.018055985
156	0x3ce9ce43	0.028540736
157	0x3ca46833	0.020069217
158	0xbd8ef8a9	-0.06981022
159	0x3c1ead42	0.009684863
160	0xbd88376f	-0.06651198
161	0x3dfcd74a	0.12345751
162	0x3da2f52c	0.07956919
163	0x3bbd070e	0.0057686632
164	0x3dc13654	0.094341904
165	0xbdf237db	-0.1182706
166	0xbd83f8e7	-0.06443959
167	0xbbff020f	-0.007782228
168	0xbdc21676	-0.0947694
169	0xbd4b7445	-0.04967143
170	0x3dcc15b2	0.099650756
171	0xbd31dc66	-0.04342308
172	0xbdd05913	-0.101732396
173	0x3d9ea680	0.07746601
174	0xbdc25918	-0.094896495
175	0x3da94dc0	0.08266783
176	0x3dd4b943	0.10386898
177	0x3d6ae7b9	0.057349894
178	0x3cbd5ab3	0.023114538
179	0xbde66f22	-0.11251666
180	0x3d2522d3	0.040316414
181	0x3d436026	0.047699116
182	0x3a6d0ef2	0.00090430595
183	0xbb6e3e7c	-0.0036353162
184	0xbe01903f	-0.12652682
185	0xbdc0e81a	-0.0941927
186	0x3d2e4c19	0.04255304
187	0x3d265836	0.04061147
188	0xbde1d401	-0.11026765
189	0x3da41419	0.08011646
190	0x3d6eb856	0.058281265
191	0xbd8d3c0a	-0.06896217
192	0xbcc5c421	-0.024141373
193	0x3d8c36ef	0.06846415
194	0xbdeaa60f	-0.114574544
195	0x3d087774	0.033317044
196	0x3da2e5de	0.07954
197	0xbdab8ab2	-0.083760634
198	0x3da09e32	0.07842673
199	0xbd03c6dd	-0.032172073
200	0x3db3d531	0.087808974
201	0x3dcf4bb1	0.10121859
202	0x3a59a123	0.00083019043
203	0x3c47a424	0.01218513
204	0x3d3ad010	0.04560858
205	0xbda6af09	-0.08138854
206	0xbdd551bd	-0.10415981
207	0xbd5a3c27	-0.053280022
208	0xbd9fe7fd	-0.0780792
209	0x3d82d20a	0.06387718
210	0x3da006a5	0.07813767
211	0x3cdbac27	0.026815487
212	0xbd39231e	-0.045199506
213	0xbcb81934	-0.022472955
214	0xbdc27966	-0.09495811
215	0x3cf35222	0.02970225
216	0xbdde67fd	-0.10859678
217	0xbd31a32e	-0.04336851
218	0xbd545c16	-0.051845632
219	0xbd99c07c	-0.075074166
220	0xbdfb9342	-0.122839466
221	0xbde6560f	-0.11246883
222	0x3de609a3	0.11232307
223	0xbdcf2b37	-0.101156645
224	0x3da68d08	0.08132368
225	0x3dcedf3e	0.10101174
226	0x3d92f5a4	0.071757585
227	0x3b931e57	0.004489701
228	0x3c0d11d8	0.008610211
229	0x3dc81dc6	0.09771304
230	0xbcbf16ff	-0.023326395
231	0xbcdffa94	-0.027341165
232	0x3de881a4	0.11352852
233	0x3c43e436	0.011956265
234	0x3d1cc2d5	0.038271744
235	0xbc22c995	-0.009935756
236	0xbce0d930	-0.027447313
237	0x3cbb5fde	0.022872861
238	0x3dbac8c9	0.09120328
239	0x3dc684ad	0.09693275
240	0xbdc2a789	-0.09504611
241	0x3bcb0f30	0.006196879
242	0xbd5f3d52	-0.05450184
243	0xbbf4688e	-0.007458753
244	0xbdebe0ca	-0.115174845
245	0xbda98ba6	-0.08278589
246	0xbd019ecf	-0.031645592
247	0xbc634911	-0.013872401
248	0xbc8a0946	-0.016850125
249	0x3d981368	0.074255764
250	0xbd7a1a16	-0.061060034
251	0xbd755e72	-0.059904523
252	0x3d9376e7	0.07200413
253	0x3db3f82c	0.087875694
254	0x3db3da61	0.08781887
255	0x3d37cb80	0.044871807

lstm.bias_hh_l0 f4 [256]
0	0x3dde48c8	0.10853726
1	0x3d820320	0.06348252
2	0xbcd08932	-0.025456045
3	0xbc95f967	-0.0183074
4	0xbda84e03	-0.082180046
5	0xbdde74f8	-0.10862154
6	0xbc2ef373	-0.01067816
7	0x3d1a7268	0.037706763
8	0x3d15593a	0.036462046
9	0xbc48a07a	-0.012245292
10	0xbc7cb738	-0.015424542
11	0x3ddcb2b1	0.1077627
12	0x3d753a75	0.059870202
13	0x3d3ff0af	0.046860393
14	0x3dd37ea5	0.1032689
15	0xbd7dfad8	-0.0620068
16	0x3cda47a0	0.026645482
17	0xbc4b2e90	-0.012401238
18	0xbdd3f264	-0.10348967
19	0xbbc71118	-0.006075036
20	0x3df3714f	0.11886846
21	0xbdabdc71	-0.08391655
22	0xbda8a07f	-0.08233737
23	0x3d240857	0.040047016
24	0xbd866c2e	-0.065636024
25	0x3d52a9b8	0.051431388
26	0xbca5785f	-0.020198999
27	0xbdcff836	-0.10154764
28	0xbdd1cdec	-0.102443546
29	0x3de3ba42	0.1111951
30	0x3bafdf92	0.005367228
31	0x3de40f11	0.11135686
32	0xbd762ca9	-0.060101185
33	0xbdebde40	-0.11517
34	0x3e00534f	0.1253178
35	0x3d72d2a4	0.059282914
36	0x3d1eaee6	0.038741015
37	0x3d87e600	0.06635666
38	0xbd82a13e	-0.06378411
39	0xbd6574fe	-0.056019776
40	0x3db4927f	0.088170044
41	0xbc8bd5cf	-0.017069725
42	0xbcdab28f	-0.026696471
43	0x3b8516cc	0.0040615555
44	0x3d4bccf1	0.049755994
45	0xba65d952	-0.000876804
46	0xbcea4850	-0.028598934
47	0xbd5cd69b	-0.0539156
48	0x3c3ed2f0	0.011646971
49	0xbdea642b	-0.11444887
50	0xbd21bf9b	-0.03948937
51	0x3d662e55	0.05619653
52	0x3d880e85	0.066433944
53	0xbd16c04a	-0.036804475
54	0xbce692b0	-0.028146118
55	0x3df338dd	0.1187608
56	0xbdb3e85f	-0.08784556
57	0xbd053d22	-0.032529004
58	0xbdf04bd0	-0.1173321
59	0x3dac566d	0.08414922
60	0xbcd48cd0	-0.02594605
61	0x3dc2c8eb	0.09510978
62	0xbd2cc10d	-0.042176295
63	0x3d8bd8b1	0.0682844
64	0xbc3c16f1	-0.011480079
65	0xbdb5ed26	-0.08883123
66	0xba6dfca6	-0.000907848
67	0xbd84fd76	-0.06493656
68	0x3cced440	0.025247693
69	0xbd114c4a	-0.035473146
70	0x3d8b943a	0.06815381
71	0x3dc6ab05	0.09700588
72	0xbcb77991	-0.022396835
73	0xbc45c2a6	-0.012070334
74	0x3c70c983	0.014696482
75	0x3d1be485	0.03805973
76	0xbdc18173	-0.094485186
77	0xbdd09f1f	-0.101866
78	0xbde6db3a	-0.11272283
79	0x3ccd1ef2	0.02503917
80	0xbcb1cdc7	-0.021704568
81	0x3d269c66	0.040676497
82	0x3d048be0	0.032359958
83	0x3b18caf9	0.002331434
84	0xbaf9fa56	-0.0019071798
85	0xbdde9807	-0.10868841
86	0xbd800bd6	-0.062522575
87	0x3c53d194	0.012928385
88	0xbda6b91c	-0.081407756
89	0xbd9e439e	-0.07727741
90	0xbdd697b0	-0.10478151
91	0x3ddaa88e	0.106766805
92	0x3ce291f8	0.027657494
93	0x3d1ca154	0.038239792
94	0xbdb3a4f3	-0.08771696
95	0x3dfe1d62	0.12407948
96	0x3df8a3ac	0.12140593
97	0xbda7e9a1	-0.08198858
98	0x3df8fdc4	0.12157777
99	0x3cdeb3cd	0.027185345
100	0xbdb44cd8	-0.08803719
101	0xbd4ed54a	-0.050496377
102	0xbd507f8e	-0.050902896
103	0x3dcd9f58	0.10040158
104	0xbc8607b0	-0.016361088
105	0x3de28e86	0.110623404
106	0x3d2f71df	0.042833205
107	0xbd96582b	-0.073410355
108	0xbdfad948	-0.12248474
109	0xbdff83e3	-0.12476327
110	0xbd97f2d6	-0.07419364
111	0x3d89537c	0.067053765
112	0x3c93daf5	0.018048743
113	0xbda7e34d	-0.08197651
114	0xbcf41f59	-0.029800104
115	0xbcf74686	-0.030184995
116	0xbe00f74a	-0.12594333
117	0xbc58d04b	-0.013233255
118	0xbd458a63	-0.04822768
119	0xbd4a2b43	-0.049357664
120	0x3b482dd6	0.0030544898
121	0xbd97b4e4	-0.07407549
122	0xba9d131b	-0.0011983843
123	0x3d82b3df	0.06381964
124	0xbda080da	-0.078370765
125	0x3d38cfa0	0.04511988
126	0xbc9723dd	-0.018449718
127	0x3d697b68	0.057002455
128	0x3dbbcd40	0.09170008
129	0xbce61ce0	-0.02808994
130	0x3dbb6d8b	0.09151753
131	0x3de7e7cf	0.11323511
132	0x3dce2e27	0.100673966
133	0xbc56ab9f	-0.013102441
134	0xbd23657e	-0.039891712
135	0x3de12652	0.10993637
136	0x3de109e2	0.10988213
137	0x3d7b4184	0.061341777
138	0x3d9968f4	0.07490721
139	0x3cc2fa7c	0.02380108
140	0x3bd99620	0.0066402107
141	0x3c883506	0.016626846
142	0x3d9e2bc0	0.077231884
143	0x3def6fd5	0.11691252
144	0x3dd3588f	0.103196256
145	0xbd020a38	-0.031748027
146	0xbd8fe99e	-0.07026981
147	0x3db552b4	0.08853665
148	0xbdce6cb2	-0.10079326
149	0x3ddf36b0	0.10899103
150	0x3cfd3f31	0.030913921
151	0xbd79020a	-0.06079296
152	0x3d274ef1	0.04084677
153	0xbdae263f	-0.085033886
154	0x3ddbbfb0	0.10729921
155	0xbd8231be	-0.06357144
156	0xbd94770e	-0.072492704
157	0x3dd0affe	0.10189818
158	0xbd1e405e	-0.038635604
159	0x3da1c71c	0.07899305
160	0x3e0016f6	0.12508759
161	0xbd9113d0	-0.07083857
162	0xbbb266f2	-0.005444401
163	0xbdd2d351	-0.10294212
164	0xbd85740c	-0.06516275
165	0xbd2b7efe	-0.041869156
166	0x3de0a949	0.109697886
167	0x3d2efe06	0.042722724
168	0x3cde4ae0	0.027135313
169	0xbde7c784	-0.113173515
170	0x3d7c1c77	0.061550584
171	0xbcd42e5b	-0.02590101
172	0xbde447a9	-0.111464806
173	0x3dfd75e6	0.12376003
174	0xbdbba3f0	-0.09162128
175	0x3d14b58c	0.03630595
176	0x3dda06f7	0.1064586
177	0xbd8b1ab1	-0.067922
178	0x3d07df65	0.03317203
179	0x3c3f2293	0.011665958
180	0x3b340bf7	0.0027472952
181	0xbc15aea7	-0.009135879
182	0x3d3fdf38	0.046843737
183	0xbdbf650c	-0.09345445
184	0xbdce260b	-0.1006585
185	0xbd148a0a	-0.036264457
186	0xbd261feb	-0.040557783
187	0x3d83cbf1	0.06435383
188	0xbdff544b	-0.124672495
189	0x3bc3dc23	0.00597717
190	0x3dc982d7	0.09839409
191	0x3c9f9dd1	0.019484432
192	0xbd7f1d13	-0.062283587
193	0xbd3faa5d	-0.04679333
194	0x3d7c26b3	0.061560344
195	0x3ce8a1a7	0.028397394
196	0xbd97cc90	-0.07412064
197	0x3c9043e6	0.017610501
198	0x3dabb15a	0.083834365
199	0xbd613109	-0.054978404
200	0xbd553c00	-0.052059174
201	0xbd8b1b77	-0.06792348
202	0x3df0abf4	0.117515475
203	0xbce42466	-0.027849387
204	0xbdbd066a	-0.09229739
205	0x3de5f455	0.11228243
206	0x3db87697	0.09006994
207	0x3dff7b48	0.12474686
208	0x3d385b84	0.04500915
209	0xbdb3b4ba	-0.08774705
210	0x3da05e57	0.07830494
211	0xbb4188c3	-0.002953098
212	0x3dcd820f	0.10034572
213	0x3d326309	0.04355148
214	0x3d7c48ef	0.061592992
215	0xbc1d63cd	-0.009606314
216	0xbcaf8cd5	-0.021429459
217	0xbd9c1955	-0.07622019
218	0x3d8fe47d	0.070260026
219	0xba45390f	-0.0007523456
220	0x3b03baa4	0.002010026
221	0xbc3323a8	-0.010933794
222	0x3dfab59d	0.12241671
223	0x3d4634df	0.048390266
224	0x3dee81dc	0.116458625
225	0xbcd3ba17	-0.02584557
226	0xbcf1cb78	-0.029515967
227	0x3cbf897e	0.023380991
228	0x3df7dd65	0.121027745
229	0xbc5fab2d	-0.013651651
230	0xbdc0f032	-0.094208136
231	0x3d702a51	0.058634106
232	0x3d8028d6	0.06257789
233	0x3d8c479c	0.06849596
234	0xbc4e962d	-0.012609047
235	0x3cb7fa16	0.022458117
236	0xbd6edaac	-0.05831401
237	0xbd85e53e	-0.06537865
238	0xbdd49c31	-0.10381354
239	0x3dd6bf3b	0.10485693
240	0x3df87d01	0.121332176
241	0x3d88f235	0.06686822
242	0x3dcfb704	0.10142329
243	0x3da75991	0.0817138
244	0xbb96dea2	-0.0046041766
245	0x3d5bfe45	0.053709287
246	0x3bd7e8bf	0.006589025
247	0x3d292278	0.041292638
248	0x3dfe7e32	0.124264136
249	0x3dbfc69e	0.09364055
250	0xbd06586a	-0.032799162
251	0x3d0ab46e	0.033863477
252	0x3df5b289	0.119969435
253	0x3d0bc9cf	0.034128007
254	0x3cb92321	0.022599759
255	0x3c53de55	0.012931426

fc.weight f4 [1, 64]
0	0xbcf62f2b	-0.030051788
1	0xbdbe79d4	-0.093005806
2	0xbd9b79ac	-0.075915664
3	0xbc9a7d2e	-0.018858518
4	0x3de2f896	0.1108257
5	0xbd86bdf5	-0.065792
6	0xbd025d2c	-0.031827137
7	0x3ddfd186	0.10928635
8	0x3cc2a086	0.023758184
9	0xbd7d7fb5	-0.06188937
10	0xbdcdb97e	-0.100451455
11	0xbdb00b0c	-0.08595857
12	0xbdf73397	-0.12070387
13	0x3d1ebfc6	0.03875711
14	0xbdee4b12	-0.11635412
15	0xbc1852c6	-0.0092970785
16	0xbdb911d9	-0.09036607
17	0x3ddf2754	0.10896173
18	0x3d3ab69d	0.04558431
19	0xbc89371b	-0.01674991
20	0xbdb0a68f	-0.086255185
21	0xbd2aa58b	-0.04166178
22	0xbdd18474	-0.102303416
23	0x3d87c2ee	0.06628977
24	0x3cc87e36	0.024474245
25	0x3d62c6f0	0.055365503
26	0xbcf9e50b	-0.030504724
27	0xbdfcd92a	-0.12346108
28	0x3e00876d	0.12551661
29	0xbdf90110	-0.12158406
30	0xbbd003d9	-0.006348115
31	0x3dc7fd35	0.09765092
32	0x3d54a434	0.05191441
33	0x3d4fa6a9	0.05069605
34	0x3dfb46f3	0.12269392
35	0xbde23120	-0.11044526
36	0x3c40ec9f	0.011775165
37	0xbddef5be	-0.10886715
38	0xbdf08e4c	-0.11745891
39	0x3d40d8e7	0.047081854
40	0xbd06ecf0	-0.032940805
41	0x3d27118e	0.040788226
42	0xbbddd98e	-0.0067703193
43	0x3d33673b	0.04379962
44	0xbdb20ed8	-0.086942375
45	0xbd2edada	-0.042689182
46	0xbd6a4a96	-0.057200037
47	0xbd8989e0	-0.06715751
48	0x3dc122e2	0.094304815
49	0xbdf17c95	-0.1179134
50	0xbdb51f27	-0.088438325
51	0x3c280629	0.010255375
52	0xbd4e0058	-0.050293297
53	0x3bd9a475	0.0066419193
54	0x3da7daec	0.08196053
55	0xbdcd7480	-0.10031986
56	0x3db6e348	0.08930069
57	0xbd3be280	-0.045870304
58	0xbd70d425	-0.058796067
59	0xbd8d6c1c	-0.06905386
60	0xbd85a539	-0.06525654
61	0x3d52a491	0.051426474
62	0x3d55c9fd	0.052194584
63	0xbcf86378	-0.030320868
